datacfg:cfg/coco.data
layer     filters    size              input                output
    0 conv     16  3 x 3 / 1   416 x 416 x   3   ->   416 x 416 x  16
    1 max          2 x 2 / 2   416 x 416 x  16   ->   208 x 208 x  16
    2 conv     32  3 x 3 / 1   208 x 208 x  16   ->   208 x 208 x  32
    3 max          2 x 2 / 2   208 x 208 x  32   ->   104 x 104 x  32
    4 conv     64  3 x 3 / 1   104 x 104 x  32   ->   104 x 104 x  64
    5 max          2 x 2 / 2   104 x 104 x  64   ->    52 x  52 x  64
    6 conv    128  3 x 3 / 1    52 x  52 x  64   ->    52 x  52 x 128
    7 max          2 x 2 / 2    52 x  52 x 128   ->    26 x  26 x 128
    8 conv    256  3 x 3 / 1    26 x  26 x 128   ->    26 x  26 x 256
    9 max          2 x 2 / 2    26 x  26 x 256   ->    13 x  13 x 256
   10 conv    512  3 x 3 / 1    13 x  13 x 256   ->    13 x  13 x 512
   11 max          2 x 2 / 1    13 x  13 x 512   ->    13 x  13 x 512
   12 conv   1024  3 x 3 / 1    13 x  13 x 512   ->    13 x  13 x1024
   13 conv   1024  3 x 3 / 1    13 x  13 x1024   ->    13 x  13 x1024
   14 conv    425  1 x 1 / 1    13 x  13 x1024   ->    13 x  13 x 425
   15 detection
Loading weights from tiny-yolo.weights...Done!
Start prediction...
network_predict.
forward_network.
predicting: layer NO. 0.
-----------------------------------------------
activate            :      1 calls;  56.152 msecs total time
add_bias            :      1 calls;  27.804 msecs total time
batch_norm          :      1 calls;  80.725 msecs total time
…
